…
2019-06-27 15:55:32.190957: I tensorflow/core/platform/profile_utils/cpu_utils.cc:94] CPU Frequency: 2593550000 Hz
2019-06-27 15:55:32.192967: I tensorflow/compiler/xla/service/service.cc:150] XLA service 0x33b61c0 executing computations on platform Host. Devices:
2019-06-27 15:55:32.192989: I tensorflow/compiler/xla/service/service.cc:158]   StreamExecutor device (0): <undefined>, <undefined>
_________________________________________________________________
Layer (type)                 Output Shape              Param #   
=================================================================
input_1 (InputLayer)         (None, 512, 256)          0         
_________________________________________________________________
conv1d (Conv1D)              (None, 256, 256)          131328    
_________________________________________________________________
conv1d_1 (Conv1D)            (None, 128, 128)          65664     
_________________________________________________________________
conv1d_2 (Conv1D)            (None, 64, 64)            16448     
_________________________________________________________________
conv1d_3 (Conv1D)            (None, 32, 32)            4128      
_________________________________________________________________
lstm (LSTM)                  (None, 32)                8320      
_________________________________________________________________
dense (Dense)                (None, 3)                 99        
_________________________________________________________________
activation (Activation)      (None, 3)                 0         
=================================================================
Total params: 225,987
Trainable params: 225,987
Non-trainable params: 0
_________________________________________________________________
Epoch 1/150
100/100 [==============================] - 2s 17ms/step - loss: 0.7607 - acc: 0.6700
1000/1000 [==============================] - 50s 50ms/step - loss: 0.9318 - acc: 0.5283 - val_loss: 0.7607 - val_acc: 0.6700
…
