…
2019-06-26 08:58:25.640352: I tensorflow/compiler/xla/service/service.cc:158]   StreamExecutor device (0): <undefined>, <undefined>
WARNING:tensorflow:From /usr/local/lib/python3.6/dist-packages/tensorflow/python/ops/math_ops.py:3066: to_int32 (from tensorflow.python.ops.math_ops) is deprecated and will be removed in a future version.
Instructions for updating:
Use tf.cast instead.
_________________________________________________________________
Layer (type)                 Output Shape              Param #   
=================================================================
input_1 (InputLayer)         (None, 512, 256)          0         
_________________________________________________________________
conv1d (Conv1D)              (None, 512, 128)          98432     
_________________________________________________________________
max_pooling1d (MaxPooling1D) (None, 512, 64)           0         
_________________________________________________________________
conv1d_1 (Conv1D)            (None, 512, 64)           12352     
_________________________________________________________________
max_pooling1d_1 (MaxPooling1 (None, 512, 32)           0         
_________________________________________________________________
conv1d_2 (Conv1D)            (None, 512, 32)           3104      
_________________________________________________________________
max_pooling1d_2 (MaxPooling1 (None, 512, 16)           0         
_________________________________________________________________
conv1d_3 (Conv1D)            (None, 512, 16)           784       
_________________________________________________________________
max_pooling1d_3 (MaxPooling1 (None, 512, 8)            0         
_________________________________________________________________
conv1d_4 (Conv1D)            (None, 512, 8)            200       
_________________________________________________________________
max_pooling1d_4 (MaxPooling1 (None, 512, 4)            0         
_________________________________________________________________
lstm (LSTM)                  (None, 512, 16)           1344      
_________________________________________________________________
lstm_1 (LSTM)                (None, 16)                2112      
_________________________________________________________________
dense (Dense)                (None, 3)                 51        
_________________________________________________________________
activation (Activation)      (None, 3)                 0         
=================================================================
Total params: 118,379
Trainable params: 118,379
Non-trainable params: 0
_________________________________________________________________
Epoch 1/150
10/10 [==============================] - 14s 1s/step - loss: 1.0989 - acc: 0.3667
Epoch 2/150
10/10 [==============================] - 12s 1s/step - loss: 1.0989 - acc: 0.2667
…
