…
2019-06-28 15:08:21.762403: I tensorflow/compiler/xla/service/service.cc:158]   StreamExecutor device (0): <undefined>, <undefined>
WARNING:tensorflow:From /usr/local/lib/python3.6/dist-packages/tensorflow/python/ops/math_ops.py:3066: to_int32 (from tensorflow.python.ops.math_ops) is deprecated and will be removed in a future version.
Instructions for updating:
Use tf.cast instead.
_________________________________________________________________
Layer (type)                 Output Shape              Param #   
=================================================================
input_1 (InputLayer)         (None, 512, 256)          0         
_________________________________________________________________
conv1d (Conv1D)              (None, 64, 128)           262272    
_________________________________________________________________
max_pooling1d (MaxPooling1D) (None, 64, 64)            0         
_________________________________________________________________
conv1d_1 (Conv1D)            (None, 8, 64)             32832     
_________________________________________________________________
max_pooling1d_1 (MaxPooling1 (None, 8, 32)             0         
_________________________________________________________________
lstm (LSTM)                  (None, 8, 64)             24832     
_________________________________________________________________
lstm_1 (LSTM)                (None, 3)                 816       
_________________________________________________________________
activation (Activation)      (None, 3)                 0         
=================================================================
Total params: 320,752
Trainable params: 320,752
Non-trainable params: 0
_________________________________________________________________
Epoch 1/150
100/100 [==============================] - 1s 13ms/step - loss: 0.4702 - acc: 0.8630
1000/1000 [==============================] - 31s 31ms/step - loss: 0.4124 - acc: 0.8990 - val_loss: 0.4702 - val_acc: 0.8630
…
